Notebook/ForestTypeMappingModel.tflite (tflite, 4744 bytes, 4 tensors)

tfl.pseudo_qconst1 i1 [4, 4]
0	0x0a	10
1	0x81	-127
2	0x93	-109
3	0x6c	108
4	0x49	73
5	0x17	23
6	0x12	18
7	0x81	-127
8	0x83	-125
9	0x88	-120
10	0x7f	127
11	0xd7	-41
12	0x81	-127
13	0x3f	63
14	0xa8	-88
15	0xd7	-41

tfl.pseudo_qconst3 i1 [4, 8]
0	0x3e	62
1	0x11	17
2	0xea	-22
3	0xea	-22
4	0x81	-127
5	0x61	97
6	0xc9	-55
7	0xcc	-52
8	0x1d	29
9	0x85	-123
10	0x7a	122
11	0x85	-123
12	0x7f	127
13	0x2d	45
14	0x5f	95
15	0x3c	60
16	0x4b	75
17	0x0b	11
18	0x04	4
19	0x63	99
20	0x81	-127
21	0xba	-70
22	0x4b	75
23	0x1b	27
24	0xbf	-65
25	0xca	-54
26	0xb5	-75
27	0x3a	58
28	0x55	85
29	0x7f	127
30	0x56	86
31	0xb7	-73

tfl.pseudo_qconst5 i1 [8, 16]
0	0x81	-127
1	0x64	100
2	0xcb	-53
3	0x5b	91
4	0x53	83
5	0x5d	93
6	0x3a	58
7	0xe9	-23
8	0xa8	-88
9	0xc7	-57
10	0xef	-17
11	0x58	88
12	0x75	117
13	0x14	20
14	0x7f	127
15	0xc7	-57
16	0x1f	31
17	0x0d	13
18	0x1a	26
19	0xf1	-15
20	0xea	-22
21	0x3d	61
22	0xaa	-86
23	0xbd	-67
24	0x5e	94
25	0xf2	-14
26	0x25	37
27	0x21	33
28	0x81	-127
29	0xac	-84
30	0x5f	95
31	0x4c	76
32	0xa9	-87
33	0x90	-112
34	0x60	96
35	0x18	24
36	0x3d	61
37	0xe6	-26
38	0x79	121
39	0xd7	-41
40	0xb0	-80
41	0x84	-124
42	0x63	99
43	0x17	23
44	0x7f	127
45	0x52	82
46	0x23	35
47	0x3a	58
48	0xf2	-14
49	0x46	70
50	0xd3	-45
51	0xdb	-37
52	0x39	57
53	0xf0	-16
54	0xc2	-62
55	0x3e	62
56	0x26	38
57	0x0e	14
58	0x33	51
59	0x6f	111
60	0xa1	-95
61	0x13	19
62	0x7f	127
63	0x39	57
64	0x0d	13
65	0x2c	44
66	0x51	81
67	0x13	19
68	0x5e	94
69	0xd8	-40
70	0xd9	-39
71	0xb6	-74
72	0x5f	95
73	0xb6	-74
74	0x34	52
75	0x81	-127
76	0xe0	-32
77	0x2a	42
78	0x1d	29
79	0xd3	-45
80	0x62	98
81	0xf1	-15
82	0xe6	-26
83	0x44	68
84	0xf5	-11
85	0x5a	90
86	0x68	104
87	0xc1	-63
88	0x21	33
89	0x5f	95
90	0x59	89
91	0x7f	127
92	0x0d	13
93	0xd8	-40
94	0xdc	-36
95	0xb6	-74
96	0x06	6
97	0x36	54
98	0xd2	-46
99	0xd6	-42
100	0xfb	-5
101	0xf9	-7
102	0xaf	-81
103	0xec	-20
104	0xb0	-80
105	0x24	36
106	0x88	-120
107	0x50	80
108	0x60	96
109	0x21	33
110	0x70	112
111	0x7f	127
112	0x09	9
113	0xba	-70
114	0x9f	-97
115	0x0e	14
116	0xb3	-77
117	0x6d	109
118	0x81	-127
119	0xdc	-36
120	0x2d	45
121	0x21	33
122	0xc4	-60
123	0xe3	-29
124	0x18	24
125	0xd5	-43
126	0xc8	-56
127	0x20	32

tfl.pseudo_qconst7 i1 [16, 9]
0	0xb5	-75
1	0x35	53
2	0xdb	-37
3	0x81	-127
4	0x2d	45
5	0xe1	-31
6	0x65	101
7	0xd5	-43
8	0x92	-110
9	0x5d	93
10	0x7f	127
11	0x64	100
12	0x45	69
13	0x73	115
14	0x38	56
15	0xce	-50
16	0x4e	78
17	0x50	80
18	0xec	-20
19	0x81	-127
20	0xa1	-95
21	0x89	-119
22	0x2f	47
23	0xc2	-62
24	0x9b	-101
25	0x69	105
26	0xe1	-31
27	0x7f	127
28	0x9d	-99
29	0xc9	-55
30	0x0b	11
31	0x14	20
32	0x21	33
33	0xb7	-73
34	0xe1	-31
35	0xdc	-36
36	0xb5	-75
37	0xcf	-49
38	0x83	-125
39	0x93	-109
40	0x81	-127
41	0x9e	-98
42	0xf3	-13
43	0x1e	30
44	0x01	1
45	0x7f	127
46	0xe0	-32
47	0x2b	43
48	0xfc	-4
49	0xfb	-5
50	0xf8	-8
51	0xde	-34
52	0xca	-54
53	0x0f	15
54	0x12	18
55	0x99	-103
56	0xa6	-90
57	0xd9	-39
58	0x06	6
59	0x81	-127
60	0x74	116
61	0x9a	-102
62	0xaa	-86
63	0xba	-70
64	0x17	23
65	0x37	55
66	0x5a	90
67	0x0f	15
68	0xd4	-44
69	0x55	85
70	0x7f	127
71	0x1a	26
72	0x81	-127
73	0x43	67
74	0xb9	-71
75	0xc7	-57
76	0x44	68
77	0xcc	-52
78	0xc2	-62
79	0xdf	-33
80	0xc7	-57
81	0x95	-107
82	0x27	39
83	0x6c	108
84	0xf4	-12
85	0x0c	12
86	0x46	70
87	0x08	8
88	0x81	-127
89	0xe4	-28
90	0xf7	-9
91	0x0b	11
92	0x90	-112
93	0x2d	45
94	0x05	5
95	0xbc	-68
96	0x28	40
97	0xc3	-61
98	0x81	-127
99	0xda	-38
100	0x5d	93
101	0x30	48
102	0x1c	28
103	0xbc	-68
104	0xdc	-36
105	0x7f	127
106	0xa7	-89
107	0xd8	-40
108	0x45	69
109	0x81	-127
110	0xb8	-72
111	0xed	-19
112	0x13	19
113	0xac	-84
114	0x34	52
115	0x03	3
116	0xb8	-72
117	0xff	-1
118	0x81	-127
119	0x6d	109
120	0xe3	-29
121	0x74	116
122	0x2f	47
123	0xe1	-31
124	0xc5	-59
125	0x49	73
126	0x64	100
127	0x01	1
128	0x1e	30
129	0xf3	-13
130	0x18	24
131	0x7f	127
132	0x0a	10
133	0x58	88
134	0x19	25
135	0x00	0
136	0x2a	42
137	0x6e	110
138	0x03	3
139	0x24	36
140	0xf3	-13
141	0xd4	-44
142	0x7f	127
143	0x75	117
