Notebook/ForestTypeMappingModel.tflite (tflite, 4744 bytes, 4 tensors)

tfl.pseudo_qconst1 i1 [4, 4]
0	0x52	82
1	0xea	-22
2	0x5d	93
3	0x81	-127
4	0x81	-127
5	0x19	25
6	0x02	2
7	0xdd	-35
8	0x7f	127
9	0xb8	-72
10	0x90	-112
11	0xb0	-80
12	0xcc	-52
13	0x5e	94
14	0x81	-127
15	0x88	-120

tfl.pseudo_qconst3 i1 [4, 8]
0	0x81	-127
1	0xa5	-91
2	0x0b	11
3	0x40	64
4	0x61	97
5	0xfe	-2
6	0x4d	77
7	0x68	104
8	0x83	-125
9	0x5b	91
10	0xce	-50
11	0xbe	-66
12	0x7f	127
13	0x67	103
14	0x84	-124
15	0x3c	60
16	0x68	104
17	0xaf	-81
18	0xd0	-48
19	0x09	9
20	0x81	-127
21	0x62	98
22	0x31	49
23	0x68	104
24	0x62	98
25	0x6e	110
26	0x0b	11
27	0x42	66
28	0x7f	127
29	0x97	-105
30	0x3e	62
31	0x06	6

tfl.pseudo_qconst5 i1 [8, 16]
0	0x06	6
1	0x3e	62
2	0x9b	-101
3	0x24	36
4	0xdd	-35
5	0xc3	-61
6	0xec	-20
7	0x1c	28
8	0x7f	127
9	0xf6	-10
10	0xf3	-13
11	0x1b	27
12	0xf4	-12
13	0x0e	14
14	0x4f	79
15	0xda	-38
16	0xff	-1
17	0x3e	62
18	0x37	55
19	0x43	67
20	0x43	67
21	0x1e	30
22	0xc2	-62
23	0xe6	-26
24	0x7f	127
25	0x49	73
26	0xd5	-43
27	0x53	83
28	0x40	64
29	0xb4	-76
30	0xd5	-43
31	0x2b	43
32	0x06	6
33	0x81	-127
34	0xc5	-59
35	0xa8	-88
36	0x1f	31
37	0x25	37
38	0xbd	-67
39	0x3b	59
40	0xdd	-35
41	0x4b	75
42	0x28	40
43	0x49	73
44	0x23	35
45	0xbb	-69
46	0xfc	-4
47	0xd9	-39
48	0x96	-106
49	0xd1	-47
50	0x30	48
51	0xed	-19
52	0x22	34
53	0x45	69
54	0x38	56
55	0x21	33
56	0x81	-127
57	0x88	-120
58	0xb2	-78
59	0x61	97
60	0xc0	-64
61	0x25	37
62	0x20	32
63	0xa1	-95
64	0x70	112
65	0x31	49
66	0x73	115
67	0x44	68
68	0x7b	123
69	0x6b	107
70	0xbe	-66
71	0x00	0
72	0x55	85
73	0x7f	127
74	0xf2	-14
75	0x45	69
76	0xfe	-2
77	0x2e	46
78	0x97	-105
79	0x3b	59
80	0xdc	-36
81	0x28	40
82	0xfc	-4
83	0x19	25
84	0x09	9
85	0x7f	127
86	0xf3	-13
87	0x20	32
88	0xeb	-21
89	0x0f	15
90	0x0c	12
91	0xb6	-74
92	0xf2	-14
93	0x2f	47
94	0x6d	109
95	0x6e	110
96	0x57	87
97	0x15	21
98	0xea	-22
99	0xd2	-46
100	0xa1	-95
101	0xd7	-41
102	0xe2	-30
103	0x48	72
104	0xf0	-16
105	0x51	81
106	0x7f	127
107	0x23	35
108	0x39	57
109	0x2b	43
110	0x33	51
111	0x41	65
112	0x0d	13
113	0x41	65
114	0x16	22
115	0x17	23
116	0xac	-84
117	0x7a	122
118	0x3a	58
119	0x08	8
120	0x49	73
121	0xd4	-44
122	0x3a	58
123	0xa0	-96
124	0x7a	122
125	0x27	39
126	0x2c	44
127	0x7f	127

tfl.pseudo_qconst7 i1 [16, 9]
0	0x07	7
1	0x6e	110
2	0x4f	79
3	0x19	25
4	0x78	120
5	0x0b	11
6	0x21	33
7	0x69	105
8	0x7f	127
9	0xdc	-36
10	0xe6	-26
11	0x91	-111
12	0x55	85
13	0xc5	-59
14	0x81	-127
15	0x1d	29
16	0xdb	-37
17	0xb3	-77
18	0xd0	-48
19	0xd2	-46
20	0x81	-127
21	0xd8	-40
22	0x51	81
23	0x05	5
24	0xae	-82
25	0x08	8
26	0x76	118
27	0xd0	-48
28	0xca	-54
29	0xd1	-47
30	0xbd	-67
31	0xd3	-45
32	0x81	-127
33	0xbf	-65
34	0xd6	-42
35	0x1f	31
36	0x41	65
37	0x81	-127
38	0xe9	-23
39	0xd7	-41
40	0x23	35
41	0x32	50
42	0xd3	-45
43	0xb5	-75
44	0x41	65
45	0x00	0
46	0x0b	11
47	0xbe	-66
48	0x81	-127
49	0xcd	-51
50	0x0a	10
51	0xc1	-63
52	0xd6	-42
53	0x0d	13
54	0x1b	27
55	0xd3	-45
56	0x5c	92
57	0x93	-109
58	0x31	49
59	0x2f	47
60	0x39	57
61	0xc9	-55
62	0x81	-127
63	0xd1	-47
64	0x4c	76
65	0xd9	-39
66	0x1b	27
67	0x5e	94
68	0x03	3
69	0x7f	127
70	0x29	41
71	0x1b	27
72	0x18	24
73	0xdf	-33
74	0xf3	-13
75	0x4b	75
76	0xab	-85
77	0x81	-127
78	0x16	22
79	0xd3	-45
80	0x30	48
81	0x7f	127
82	0xd7	-41
83	0xf8	-8
84	0x7b	123
85	0x3d	61
86	0xf1	-15
87	0xc6	-58
88	0x03	3
89	0x78	120
90	0x81	-127
91	0x51	81
92	0x39	57
93	0x1e	30
94	0x49	73
95	0xde	-34
96	0x36	54
97	0xfe	-2
98	0x9b	-101
99	0x7f	127
100	0xcb	-53
101	0xe0	-32
102	0x6a	106
103	0xcc	-52
104	0x28	40
105	0xdf	-33
106	0xa1	-95
107	0xf4	-12
108	0x44	68
109	0x21	33
110	0xa4	-92
111	0x2d	45
112	0x2f	47
113	0x0c	12
114	0xd9	-39
115	0x81	-127
116	0xa2	-94
117	0xfb	-5
118	0xfd	-3
119	0x0a	10
120	0x40	64
121	0x40	64
122	0x7f	127
123	0xe7	-25
124	0xd2	-46
125	0xba	-70
126	0xe5	-27
127	0x33	51
128	0x38	56
129	0x1e	30
130	0x41	65
131	0xce	-50
132	0xfe	-2
133	0x98	-104
134	0x81	-127
135	0x8e	-114
136	0x81	-127
137	0xb6	-74
138	0xf7	-9
139	0x51	81
140	0xd8	-40
141	0xe1	-31
142	0xba	-70
143	0xa0	-96
