Model/ForestTypeMappingModel.tflite (tflite, 4792 bytes, 4 tensors)

tfl.pseudo_qconst1 i1 [4, 4]
000000 39 81 ac d1 81 fb 78 58 81 96 eb fa dd 7f 15 66
       57 -127 -84 -47 -127 -5 120 88 -127 -106 -21 -6 -35 127 21 102

tfl.pseudo_qconst3 i1 [4, 8]
000000 e0 4f 67 2f 49 d1 dd 7f ec 81 6e 06 64 01 f5 cc
       -32 79 103 47 73 -47 -35 127 -20 -127 110 6 100 1 -11 -52
000010 bf 6f ed 91 81 62 39 e6 9f e7 63 4f 31 6f 7f bf
       -65 111 -19 -111 -127 98 57 -26 -97 -25 99 79 49 111 127 -65

tfl.pseudo_qconst5 i1 [8, 16]
000000 7f 62 fb ed 31 c0 41 d0 be aa 58 c2 79 a4 35 d1
       127 98 -5 -19 49 -64 65 -48 -66 -86 88 -62 121 -92 53 -47
000010 d9 d1 bf c9 dc cb 25 bb 5b 7f 7f 7c 11 64 d7 3e
       -39 -47 -65 -55 -36 -53 37 -69 91 127 127 124 17 100 -41 62
000020 e4 aa 50 72 3c f3 fc c5 f5 15 7f f5 d6 f7 30 ca
       -28 -86 80 114 60 -13 -4 -59 -11 21 127 -11 -42 -9 48 -54
000030 a9 fe 08 d5 35 a8 a9 4f a7 e3 98 33 46 2c b9 7f
       -87 -2 8 -43 53 -88 -87 79 -89 -29 -104 51 70 44 -71 127
000040 36 b6 2a 5f 54 fe e1 9e e9 30 0f 46 1f 52 7f cf
       54 -74 42 95 84 -2 -31 -98 -23 48 15 70 31 82 127 -49
000050 32 08 7f f3 f2 19 4b 19 62 e0 f9 2a b1 fc 27 2e
       50 8 127 -13 -14 25 75 25 98 -32 -7 42 -79 -4 39 46
000060 0a a1 32 48 0a 49 5b 9c 41 b1 27 15 34 03 00 7f
       10 -95 50 72 10 73 91 -100 65 -79 39 21 52 3 0 127
000070 88 bd ed 07 5b f4 f7 1f ec ea 7f 48 58 22 2d d2
       -120 -67 -19 7 91 -12 -9 31 -20 -22 127 72 88 34 45 -46

tfl.pseudo_qconst7 i1 [16, 9]
000000 52 df 70 0c fd 32 49 41 7f 5c 08 30 3c 23 7a 4b
       82 -33 112 12 -3 50 73 65 127 92 8 48 60 35 122 75
000010 26 7f 55 8f 81 da ee aa e7 30 f5 50 c1 93 81 1e
       38 127 85 -113 -127 -38 -18 -86 -25 48 -11 80 -63 -109 -127 30
000020 bd 99 3a 2b aa 3b 47 03 0e f7 7f c8 eb 3d 81 a7
       -67 -103 58 43 -86 59 71 3 14 -9 127 -56 -21 61 -127 -89
000030 41 b4 be e0 ef 1c 7f 16 49 e0 b5 e4 54 ee 26 84
       65 -76 -66 -32 -17 28 127 22 73 -32 -75 -28 84 -18 38 -124
000040 7f 35 f1 13 48 8c 0a 2b 64 a8 f6 4d 90 b8 fe 81
       127 53 -15 19 72 -116 10 43 100 -88 -10 77 -112 -72 -2 -127
000050 f7 ed 7f 7b 89 a0 2e 70 fa 88 f7 04 34 cb 16 3d
       -9 -19 127 123 -119 -96 46 112 -6 -120 -9 4 52 -53 22 61
000060 4a ad 81 d1 8d 8d 53 81 45 1e bb 9f 1f 47 c1 7f
       74 -83 -127 -47 -115 -115 83 -127 69 30 -69 -97 31 71 -63 127
000070 9d 59 af 56 70 81 68 da 82 a8 03 b0 d5 e7 36 af
       -99 89 -81 86 112 -127 104 -38 -126 -88 3 -80 -43 -25 54 -81
000080 9c 81 39 b6 ea c7 1a 78 81 c7 3d 99 bb 42 ca 31
       -100 -127 57 -74 -22 -57 26 120 -127 -57 61 -103 -69 66 -54 49
